resNet_coreModel.onnx (onnx, 303605 bytes, 44 tensors)

fc.weight f4 [10, 32]
000000 eb 24 b8 bd 3e 95 c1 3e cd 59 72 be 78 86 08 3f
       -0.089914165 0.37809175 -0.23667069 0.53330183
000010 a2 1c 6c be bc 9f 1d 3e cd 5b 86 3e 76 a4 98 be
       -0.23057798 0.15392965 0.26241913 -0.29812974
000020 f4 d8 03 be 85 ff a5 bd 13 a3 87 be b8 0b 3b be
       -0.1287573 -0.08105377 -0.26491603 -0.18266189
000030 28 7f 46 be b9 37 0b be 8b ac 27 be 5f e5 43 be
       -0.19384444 -0.13595475 -0.16374414 -0.19130467
000040 91 74 a6 be 44 4a c0 be 71 5b e7 bd b1 a1 34 be
       -0.32510808 -0.3755666 -0.11296738 -0.17639805
000050 15 b3 a1 bc 25 88 02 bf 07 dc b5 bd c0 8d 30 3f
       -0.019738713 -0.5098899 -0.088798575 0.68966293
000060 29 63 f2 3d eb d6 12 be 82 48 56 be f6 03 9a be
       0.118353195 -0.14339797 -0.20926097 -0.30081147
000070 c7 9e 47 be ed 49 85 3f f5 55 8e be 5f 75 67 3f
       -0.19494162 1.0413185 -0.27799955 0.9041347
000080 22 6b 83 3f 20 d7 eb bd f5 02 00 3f 8b e2 90 be
       1.0267069 -0.11515641 0.5000451 -0.2829784
000090 15 c2 03 be 33 95 4a be bb bc 36 be 03 73 18 be
       -0.12867005 -0.19783477 -0.17845432 -0.14887623
0000a0 0c 0d 1a be c9 11 3f be 07 6a 2e be f6 bc 82 3f
       -0.1504404 -0.18659128 -0.17032634 1.0213916
0000b0 0f 68 e2 bd ee 79 b5 bd 25 80 ec bd ff 38 01 be
       -0.11055004 -0.08861147 -0.11547879 -0.12619399
0000c0 dd 8e e1 bd 79 2e 46 be 76 4c f2 bd d0 04 17 be
       -0.11013577 -0.19353665 -0.1183099 -0.1474793
0000d0 5e a0 05 be 28 b9 35 be be 44 e1 bd 3e 91 15 be
       -0.13049456 -0.17746413 -0.1099944 -0.14606187
0000e0 3a e2 64 bd 05 35 20 be e7 af 8a be ef 02 6e 3f
       -0.05587981 -0.15645225 -0.27087328 0.92973226
0000f0 0d d8 1d be 2c af 37 be 4f 28 d6 bd c4 d8 5d be
       -0.15414448 -0.17937917 -0.10456907 -0.21664721
000100 ed 2d 0d be c8 86 a0 be d0 fc 91 be 56 04 40 be
       -0.1378705 -0.3135283 -0.28513193 -0.18751654
000110 5c c6 84 be 5b eb a0 3e 57 47 22 3f bb ff 3f 3f
       -0.25932586 0.31429562 0.63390106 0.7499959
000120 6b a4 23 be 37 f0 ac bd 25 2f ab be ad fb bb bd
       -0.15980689 -0.08444255 -0.33434406 -0.09178863
000130 bc 8b 8f be 49 33 12 be 26 cf 54 be 5f 97 8c be
       -0.28036296 -0.14277376 -0.20782146 -0.27459237
000140 8e 53 46 3f 64 88 59 3f 93 6d 67 be 5a f1 7f be
       0.77471244 0.8497374 -0.22600393 -0.24994412
000150 6b b4 22 be 9d a2 2e 3f b2 2e d4 be 7f fc 00 3f
       -0.15889136 0.6821688 -0.41441876 0.5038528
000160 68 36 85 3f 7c 0b 5a be 40 97 4c be 5f 77 2c be
       1.0407228 -0.21293443 -0.19979572 -0.16842411
000170 c5 1a f0 bd 85 d0 92 be b9 6c 2e 3e cb b2 30 3e
       -0.11723856 -0.28674713 0.17033662 0.17255704
000180 e3 2e ac bd ef bc 0b be 69 30 62 be 66 d1 42 be
       -0.084073804 -0.13646291 -0.2208878 -0.19025192
000190 29 95 ca be fe 7f 86 be bd de 1a 3f ec 43 a7 be
       -0.39566925 -0.26269525 0.6049612 -0.32669008
0001a0 53 4c 58 bd eb 0c fe bd df e6 97 be 43 e0 5d bd
       -0.052807163 -0.12404808 -0.29668328 -0.05416895
0001b0 6c a2 3c 3f e9 49 84 bd 2b 26 a1 be 62 08 32 3f
       0.73685336 -0.0645941 -0.31474432 0.6954404
0001c0 86 8c 80 be 72 3e da bd 37 4a 93 be 6f 96 10 3d
       -0.2510721 -0.10656442 -0.2876756 0.035299715
0001d0 6b d7 3a 3d 1a 7b 23 3f ae 49 66 3f 04 1c 40 be
       0.045615595 0.63859713 0.89956176 -0.18760687
0001e0 6f a5 46 be 0b 93 29 be a6 6c 81 3d cb 62 36 be
       -0.19399045 -0.16559999 0.06319551 -0.17811124
0001f0 bf 11 2b be 33 f1 d3 bd 0a f3 34 be ab 39 9a be
       -0.16705988 -0.103487395 -0.17670837 -0.30122122
000200 10 c2 0d be 38 29 76 3f 82 8b 69 be d2 5e 03 be
       -0.1384356 0.96156645 -0.22807124 -0.1282914
000210 55 a3 63 3f 2d 95 da bc cc fe 96 be 39 86 87 be
       0.889211 -0.02668246 -0.2949127 -0.2646959
000220 de d0 28 3f 9d 0b 3c be 97 c4 22 3f 58 e5 13 be
       0.65943706 -0.18363805 0.6358122 -0.14442956
000230 3b 09 47 be 90 22 47 be d1 f1 35 be 07 95 36 3f
       -0.19437115 -0.19446778 -0.17768027 0.7132115
000240 42 2f 4d be 2c f4 75 3f f1 7b 3b 3f e0 2e 33 3f
       -0.20037559 0.960757 0.73235995 0.699934
000250 60 f6 0a be 31 3e ae 3e 78 68 90 be ec 3e 29 3d
       -0.13570547 0.34031823 -0.28204703 0.041319773
000260 5d e1 8b be 63 53 22 be fc 4b aa 3b db 03 90 be
       -0.27320376 -0.15852122 0.0051970463 -0.2812794
000270 73 e1 64 bd 05 d1 be bd e9 1e a6 be 25 ae 5e be
       -0.055879068 -0.09317211 -0.32445458 -0.21746118
000280 9a 8b a2 bc 88 86 c9 bd 11 a3 53 be 34 29 e4 bd
       -0.019841958 -0.09840113 -0.20667674 -0.11140671
000290 02 7a 88 be 04 6e 4c be d5 ce d7 bd a0 b9 6d 3c
       -0.26655585 -0.19963843 -0.10537497 0.0145095885
0002a0 03 65 75 be da d1 40 bd 7e c4 64 3f bb f0 a2 bd
       -0.23964314 -0.04707513 0.89362323 -0.07956072
0002b0 c7 69 47 bd b1 91 8a be d0 d5 9d 3f 79 3c 4f be
       -0.04868486 -0.2706428 1.2330875 -0.20237912
0002c0 14 a8 39 3f 3f 7b 8a be 26 37 31 be 1a 0b ea bd
       0.7252209 -0.27047154 -0.17306194 -0.11427899
0002d0 f9 00 4d be 84 d3 15 be ca f3 76 3f 00 13 25 be
       -0.20019902 -0.14631468 0.9646574 -0.16120529
0002e0 0d 78 04 be 51 3d 0c be 10 0e 94 be c4 3f 6a be
       -0.1293642 -0.13695265 -0.2891698 -0.22875887
0002f0 f3 fa 03 be 1c 45 a1 be cd 53 3b bd 80 9a 60 be
       -0.12888698 -0.3149804 -0.045734216 -0.21933937
000300 bf 5a b8 bd 8d cb 4d be f5 a6 07 3f 7b 6a ed bd
       -0.090016834 -0.2009718 0.5298913 -0.11592575
000310 b1 99 7c be 72 e2 52 be e1 2a 0e be 2f 3f 1d 3f
       -0.24668004 -0.20594195 -0.13883545 0.61424536
000320 d9 70 0c 3f 86 79 07 bd 71 e5 9e be bb 2c c3 bd
       0.5485969 -0.03307488 -0.31034425 -0.09530016
000330 2b 7a f6 3e 03 57 ca bd 39 09 2c be 7d 81 4e be
       0.48140082 -0.098798774 -0.16800393 -0.20166583
000340 12 d2 8e be 0b f3 5a be 31 ad 5f be 59 0e fb 3e
       -0.27894646 -0.21381776 -0.21843411 0.49034384
000350 af cb e8 bd 14 ef 5e be 56 ea 3c be 02 51 47 be
       -0.113669746 -0.21770889 -0.18448767 -0.19464496
000360 7e 0e 30 be 29 5a c1 3f 00 51 0f be ff 0b 70 be
       -0.17193028 1.510564 -0.13995743 -0.23442076
000370 2d ce 15 be 2e 33 3b be 7d b2 12 be c6 4b 52 be
       -0.14629431 -0.18281242 -0.143259 -0.20536718
000380 2e cd d5 bd 7f c0 8e be 81 8d cc bd a1 9f 02 bd
       -0.104395255 -0.27881238 -0.09987927 -0.031890515
000390 eb 4e 6b 3f 03 30 3f be 4d 04 69 be 48 a3 f0 bd
       0.91917294 -0.18670659 -0.22755547 -0.117498934
0003a0 75 02 85 be 61 f7 88 bd bb 2a 43 3e d0 a6 ca bc
       -0.25978437 -0.06687809 0.19059269 -0.024737746
0003b0 c5 e3 fe bd 7f eb 9a 3f 3e 6a 52 3e a9 d5 5f be
       -0.12445787 1.2103118 0.2054834 -0.21858849
0003c0 b8 e5 e3 bd 50 f2 90 be 25 f8 0e 3f 1b a9 91 be
       -0.111278 -0.2830987 0.5584739 -0.2844933
0003d0 e7 41 fa bd 02 c3 88 be ba 17 a6 be 33 7d 20 be
       -0.12219601 -0.2671128 -0.32439977 -0.1567276
0003e0 a2 8d 7d bd 9d bb 42 be 09 71 63 bd cf 7e 71 be
       -0.06190265 -0.19016881 -0.05552772 -0.2358353
0003f0 94 7e fc bd 0f a6 de bd 2e d2 9c 3f 2e 6d b1 bd
       -0.1232883 -0.10871517 1.2251642 -0.086634025

fc.bias f4 [10]
000000 21 db 09 bc 48 7b 05 bc fd c7 24 3d 3f bf 87 3c
       -0.008414061 -0.008147068 0.040229786 0.016570685
000010 b2 e4 b0 3b 52 c6 b3 bc 4b dc 84 3c b8 1f a3 bc
       0.0053983564 -0.021945152 0.016218325 -0.019912586
000020 dc a8 3c 3c a7 2f 01 bd
       0.011514869 -0.031539585

onnx::Conv_210 f4 [16, 3, 3, 3]
000000 d5 9b 8d 3c b2 23 18 3d 04 f9 0b 3d c0 03 90 bc
       0.01728622 0.037143417 0.034173027 -0.017579913
000010 58 4f 51 bc d9 6f 91 ba 17 11 98 bc 61 12 95 bc
       -0.012775265 -0.0011095955 -0.018562837 -0.01819724
000020 a4 b1 af bb 7e 0f 5a 3c 08 5a f3 3c fd cf d8 3c
       -0.0053617526 0.013309358 0.029706016 0.026466364
000030 df 05 63 bc bc 44 2c bc 06 63 19 bb 81 1a 28 bc
       -0.01385638 -0.010514434 -0.002340497 -0.010260225
000040 f1 b2 25 bc fb fa 7a bb 19 45 19 3c df 6d 73 3c
       -0.010113464 -0.0038296569 0.009354853 0.014857738
000050 ae 7a 59 3c e9 63 0d bc 4c cf 51 bc fe b4 12 bc
       0.013273878 -0.0086297775 -0.012805771 -0.008954285
000060 d4 39 18 bc 57 04 61 bc 13 ab 5a bc e8 69 19 b8
       -0.009291131 -0.013733945 -0.013346451 -3.6576675e-05
000070 eb e4 4a 36 f5 f0 02 38 b6 98 19 b8 0b 0b 7d b6
       3.0233593e-06 3.1218824e-05 -3.6620266e-05 -3.7706366e-06
000080 84 3e 59 38 d2 16 cd b7 61 db ae 36 ef 15 4b 38
       5.1795054e-05 -2.444853e-05 5.211143e-06 4.84194e-05
000090 cc a8 48 36 2a de 15 37 b1 b0 2a 37 13 4f ba 36
       2.9900575e-06 8.932819e-06 1.0173929e-05 5.5524374e-06
0000a0 64 e0 ba b6 fb f1 a9 37 17 0f cb 36 9f 41 79 b5
       -5.5693545e-06 2.025905e-05 6.051628e-06 -9.285522e-07
0000b0 a9 f5 a4 37 d8 91 c2 37 7e a9 dc 36 88 cf a6 b7
       1.9664718e-05 2.3194516e-05 6.5762424e-06 -1.9885381e-05
0000c0 23 a1 05 38 1b 29 40 b6 d2 99 93 b7 32 ca ee 37
       3.185974e-05 -2.8634156e-06 -1.7595394e-05 2.8465965e-05
0000d0 9b 45 69 b6 90 9d ad b7 39 1e 1c 3c 3b aa 8f 3b
       -3.4760221e-06 -2.0696578e-05 0.00952869 0.0043843067
0000e0 f3 91 6b bd 1f b1 f9 3d 79 75 03 bd fd 05 da bc
       -0.057512235 0.12191986 -0.032094453 -0.026614184
0000f0 59 20 e8 3d e4 58 8f bd 8a ed f8 bc aa af ec 3b
       0.11334295 -0.069993764 -0.030386705 0.007223089
000100 b3 a5 cb 3c 49 a2 6e 3c a9 3d b7 3b 8f 4c cd bd
       0.024859285 0.014565059 0.0055920673 -0.10024368
000110 f0 43 3a 3d 09 81 26 3d 69 6a df bd 4e 3e 2b 3c
       0.045474946 0.0406504 -0.10908968 0.010451866
000120 6e ff fb bc d9 95 10 3d fe a6 5e 3b 28 88 69 bd
       -0.030761447 0.035299156 0.0033974047 -0.057014614
000130 10 38 10 bc 61 3a a2 3d 70 69 f6 bc 05 f4 f0 bc
       -0.008802429 0.07921291 -0.030079573 -0.029413233
000140 c1 ed 81 3d 1a 5e 5f 3b af 1a 63 bc e6 fe 07 bc
       0.06344176 0.0034083189 -0.013861342 -0.008300519
000150 7b 01 65 bc 99 4f bb bc 63 62 5e bc 53 c5 5c 3c
       -0.013977404 -0.022865104 -0.013573262 0.01347478
000160 0e 1f f4 3c f7 6e a9 3c a3 4a ae bc d1 93 1a bd
       0.029799964 0.020682795 -0.021275824 -0.037738625
000170 c2 e4 ce bc 7d 99 2a bc c0 0f 12 bc 75 3a 55 bc
       -0.025255565 -0.010412571 -0.008914888 -0.0130144255
000180 93 89 07 3d 9b c5 7c 3d fb 55 04 3d 1f f7 9b bc
       0.033090185 0.06171189 0.03230856 -0.019038735
000190 c0 2e 20 bd 93 47 b7 bc bd 2d 6c bc 29 41 9a bc
       -0.039107084 -0.022372996 -0.014415202 -0.018829899
0001a0 b6 01 a3 bc 24 0d 0b 3d 3b ff 51 3d 2a 3f f4 3c
       -0.019898277 0.03394808 0.051268797 0.029815275
0001b0 36 c7 4e 3d 43 69 0f be c9 92 0c bc 09 d6 ad 3c
       0.05048295 -0.14004998 -0.008579918 0.021220224
0001c0 30 89 61 3e ae 1a 01 be 71 09 df 3c 2e 7c c9 bc
       0.22024989 -0.12607834 0.027226182 -0.024595346
0001d0 99 64 d2 bc 73 ca 87 3c c0 f2 17 bd 05 86 43 3d
       -0.025682734 0.016576027 -0.03709674 0.047735233
0001e0 35 42 f3 bc 0a 0d 80 3e 5e 11 98 bd af 70 46 bd
       -0.029694656 0.25009948 -0.074251875 -0.048447307
0001f0 dd 5e e0 bd cb 67 b4 bc d8 b3 60 bd 12 be 8d bd
       -0.10955594 -0.022022149 -0.054859012 -0.06921019
000200 7e 08 72 3c 55 da 73 bd d5 a4 19 3e 71 df 7c 3a
       0.0147725325 -0.05953439 0.15004285 0.00096463325
000210 82 9e 11 bd 46 5d 94 3c 91 2a 18 3d 49 6b 5d 3c
       -0.035551555 0.018110882 0.03714997 0.013514348
000220 bd e5 66 3d 9a d3 b8 3c ea 69 81 3b 42 3b 1c 3c
       0.05637144 0.022561837 0.0039493935 0.009535613
000230 6d 1a 3c 3b 5d cf 58 3c 43 ef a5 bc 8d 4b 30 3c
       0.0028702274 0.013233033 -0.02025569 0.0107602
000240 15 ec 30 bc 08 4e a0 bc f7 c1 50 bc 73 0c 3e bd
       -0.010798474 -0.019568458 -0.012741557 -0.04639859
000250 5e 21 bf bd ff aa 6e bd 1a f9 52 bc c1 0a a9 bd
       -0.09332536 -0.058268543 -0.012876773 -0.08254004
000260 b2 15 94 bc 08 bd 93 3c 37 9b c2 3c b4 32 21 3c
       -0.018076751 0.018034473 0.023755653 0.009838749
000270 01 21 41 3c 83 f1 48 bc 75 d7 11 bc 77 82 d4 3c
       0.011787654 -0.012264612 -0.008901467 0.025941117
000280 4e 9f ee bc 03 ea d2 3b 94 5f 27 bd 24 79 cf bd
       -0.029128697 0.006436588 -0.040862635 -0.101305276
000290 1c ef a0 bd 81 da 44 bd 89 0f 89 bc fd a9 29 bd
       -0.078581065 -0.048059944 -0.01673104 -0.04142188
0002a0 51 6f 4e 3b 8b 4f ea 3b 78 b2 b6 3c a7 13 0f 3c
       0.0031499455 0.0071505955 0.022301897 0.008732713
0002b0 bc e6 e9 3d 5b e9 dc 3c 29 02 b8 3d 7d ca 89 3e
       0.11420962 0.026966741 0.08984787 0.269123
0002c0 91 fe d2 3d 3b 8a ed 3c a4 2e 06 3e 58 f0 50 3d
       0.10302461 0.028996577 0.1310373 0.05101046
0002d0 ec 09 d5 3c dd 43 a4 bc 11 b7 74 3d 61 33 5b bd
       0.026005708 -0.020051891 0.0597449 -0.053515796
0002e0 db 2d 0a be 87 cd a9 bd e3 ba 56 bd 8d 1c 26 be
       -0.13494055 -0.08291154 -0.052424323 -0.16221829
0002f0 21 62 9f bd c0 9f 8c 3c 9e 21 2a bd 7b 02 34 bc
       -0.077823885 0.017166018 -0.041535966 -0.0109869195
000300 ea 96 42 bd 7f 98 ed bd 48 9f 47 bd 5b 3b 88 3a
       -0.047507204 -0.11601352 -0.048735887 0.0010393666
000310 52 0c 7b bd 97 5c e1 bc 2c 36 b5 3b 8b 8e 91 3c
       -0.061291046 -0.02750997 0.0055301394 0.017768165
000320 35 cb 45 3b 0d 7a 8c 3c d9 7f 83 3d 5d 80 52 3d
       0.0030180935 0.017148042 0.064208694 0.051391948
000330 71 48 0a 3d db ef 78 3d 92 b2 f2 3c 7c 29 97 3a
       0.03376049 0.06077562 0.029626165 0.0011532749
000340 de 31 3f 3b 36 f6 41 bb 85 bd 3c bc f3 4e aa 3c
       0.002917401 -0.0029596216 -0.011519794 0.020789599
000350 34 90 0a 3c fd 8f 2d bc 95 d2 f3 3b 72 56 81 bc
       0.008457232 -0.0105934115 0.007440875 -0.01578829
000360 60 40 f8 bd 3f a2 e5 bd 40 3e 09 be 8f 59 50 bb
       -0.121216536 -0.112125866 -0.13402653 -0.0031791662
000370 79 3e 38 3e 61 57 ab 3d 93 c6 1e bd d8 ee aa 3e
       0.17992581 0.083662756 -0.038763594 0.33385348
000380 ec 74 09 3e 71 21 2b 3d fc 4f e0 bc 3a 47 c1 3c
       0.13423508 0.04177994 -0.02738189 0.023593534
000390 a9 81 fb 3a 36 24 49 be 5a ee d7 bd 92 af 63 bb
       0.0019188422 -0.1964272 -0.10543509 -0.00347421
0003a0 db c8 9c bd 91 fc 13 bd 10 db 63 3d 16 1d 1a 3e
       -0.07655498 -0.036129538 0.055628836 0.15050158
0003b0 90 70 0c 3e 30 24 53 3d df eb be bd 9d 10 f3 bb
       0.13714814 0.051548183 -0.093223326 -0.007417752
0003c0 a1 7d c2 3b b0 48 27 be b7 df 8d bd 67 d2 3e 3c
       0.0059353863 -0.16336322 -0.06927436 0.0116468435
0003d0 f4 73 e2 3b 20 fb df 39 ed b1 0c 3d 74 19 06 bc
       0.0069107953 0.00042720977 0.03434937 -0.008184779
0003e0 0a 31 e8 bc 89 ef 6c 3c 98 c2 bf bc 14 21 bb bc
       -0.028343696 0.0144614065 -0.02340822 -0.022842921
0003f0 60 6f d4 3c 2a 1f 91 3a bd ad 8a bc 4e 17 66 3d
       0.025932014 0.001107191 -0.016928548 0.05617457

onnx::Conv_211 f4 [16]
000000 f3 3b 20 3e 7f d6 c5 ba 9b 8c 84 3e 0b 1e 67 3e
       0.15647869 -0.0015093832 0.25888523 0.22570054
000010 5b 6c 1a 3f 02 b1 a2 bc 14 29 57 3e 46 a1 80 3e
       0.6032159 -0.019859795 0.21011764 0.25123042
000020 82 21 8b 3e 88 60 2a 3e 63 09 c5 b8 99 78 91 3e
       0.27174002 0.16638386 -9.3954404e-05 0.2841232
000030 02 51 00 bf 87 87 25 3e a0 97 0f 3e 41 b8 aa be
       -0.5012361 0.16164981 0.14022684 -0.333437

onnx::Conv_213 f4 [8, 16, 3, 3]
000000 c6 d9 ab bc 52 70 e4 bc 4a 55 88 3b f0 91 84 3c
       -0.020977866 -0.02788559 0.004160558 0.01618287
000010 f3 21 45 bc c0 7d f5 bc b9 8a 2d 3d 57 c2 0c 3b
       -0.01203202 -0.029967189 0.042368624 0.002147814
000020 c0 07 86 bc ae cf 62 38 72 03 fe 38 6a 4b 22 39
       -0.016361117 5.4076016e-05 0.000121123056 0.00015477618
000030 e5 46 12 ba 4f e9 90 38 0e 5f 72 3a ea 37 10 ba
       -0.0005580022 6.909912e-05 0.00092457316 -0.0005501496
000040 a6 b3 9d b8 9b b7 d4 3a f0 97 a8 bd aa eb 91 bd
       -7.5198055e-05 0.0016229035 -0.08232105 -0.071250275
000050 7f 56 31 3e f7 9b ed bd 7e 90 58 bd 2f b6 1c 3d
       0.17318152 -0.116020136 -0.052872173 0.03825968
000060 37 41 ef bc 8f f7 12 bd 31 a4 da bd f2 2b 32 3c
       -0.029205902 -0.03588062 -0.10675848 0.010874735
000070 56 0a 55 bd 49 19 ac bd 3c b7 c9 bb 92 13 68 bd
       -0.05201181 -0.0840326 -0.0061558764 -0.05665929
000080 12 56 b5 bc 82 00 9e 3c 21 cc 54 3c 8f e9 06 bd
       -0.022135768 0.019287352 0.012988121 -0.032937583
000090 57 5d 85 bd 3f 90 44 bd 79 93 21 3e f9 fc 5c 39
       -0.06511944 -0.047989126 0.15778913 0.00021075075
0000a0 20 12 d0 3c a7 f9 f4 bd 39 d3 e2 3c 92 34 44 be
       0.025399268 -0.1196168 0.02768861 -0.19160679
0000b0 5d 07 e7 3d 18 de a2 bc 84 a2 e1 bb 6d 30 ed bb
       0.11280701 -0.019881293 -0.0068858285 -0.007238439
0000c0 4f 4f 99 bd 2c 7c 29 3d 16 b3 fc bb 7d 90 6e bd
       -0.0748583 0.041378185 -0.0077117784 -0.058243264
0000d0 ee fd a6 bb 1b c4 89 bd d9 3f ff 3d a9 68 a8 bd
       -0.0050961887 -0.06726857 0.1246335 -0.08223087
0000e0 2e d8 9f be 3b 5a 80 3e cb a9 b1 bc a2 5a a2 be
       -0.3121962 0.2506884 -0.021687409 -0.31709772
0000f0 a7 f7 50 3e 67 cf 4f bb 0c 78 e4 bd 7e 80 8e 3d
       0.20406972 -0.0031709315 -0.111557096 0.06958102
000100 1d 9c 07 be 2e e9 55 be 26 8c 83 3d 28 5c b4 bd
       -0.13243146 -0.20889732 0.064232156 -0.0880664
000110 c7 e1 1f be ef 63 2b 3e fc 07 ff 3d 26 27 5a 3d
       -0.15613471 0.1673734 0.12452695 0.05325999
000120 dd 4a 2c bb d7 39 5c 3e b9 af b1 3d 3c dd 09 be
       -0.002628974 0.21506439 0.086760946 -0.134633
000130 7f ee 6a bd b5 b9 d9 3d 2c ea 6e be 53 fb 3c be
       -0.057356354 0.10631124 -0.23331517 -0.18455248
000140 bc d9 6b 3c 46 39 09 3c 65 d0 b5 bd 24 2a b9 bb
       0.014395174 0.008375471 -0.08877639 -0.0056507755
000150 c1 2d 8c b9 74 ca 2e bd d8 42 b6 bc 9f ee 39 3d
       -0.0002673697 -0.042673543 -0.02224867 0.045393582
000160 03 44 67 bc 06 36 bb bb 89 1e ca 37 7c 89 04 b7
       -0.014115336 -0.005713227 2.4094496e-05 -7.899824e-06
000170 f9 cb b3 b7 88 f9 c8 37 22 f9 9d b7 84 76 66 35
       -2.1433445e-05 2.3958055e-05 -1.883187e-05 8.585414e-07
000180 d6 4d 50 37 27 cf af b7 04 03 83 37 e6 37 73 bd
       1.2415889e-05 -2.0958088e-05 1.5617821e-05 -0.05937948
000190 75 3b b5 3d 91 76 d7 3d 71 64 ad bd 63 ad 15 bd
       0.08849231 0.105206616 -0.08466423 -0.036542308
0001a0 2f 54 50 3d 81 cb 36 be bc 53 d1 bd 22 10 32 3d
       0.050861534 -0.17851068 -0.10221049 0.043472417
0001b0 47 c3 11 bd 22 7e a0 bd 6f fc 7c bd 95 b9 db bd
       -0.03558662 -0.07836558 -0.061764177 -0.10728756
0001c0 1c b4 0b bd 8b 5d bd bc 5c a0 c3 3c 8a bb 8f 3d
       -0.034107313 -0.023115894 0.023880176 0.07018192
0001d0 42 46 64 bd 06 f1 8f 3d 11 a3 26 bd 09 14 ac bc
       -0.055731066 0.070283934 -0.040682856 -0.021005647
0001e0 d2 17 8d bd 72 ee e7 bd 80 ca cc bc 03 a5 17 bc
       -0.06889309 -0.11324777 -0.024998903 -0.00925565
0001f0 1d 96 e2 bc dd d7 47 3d dc 95 10 bd e0 89 a5 bd
       -0.02765947 0.048789848 -0.035299167 -0.08082938
000200 44 41 93 bd 59 60 e8 3c d1 2a b8 bd 55 76 0a be
       -0.07190183 0.028366255 -0.089925416 -0.13521703
000210 05 64 86 3d 00 b5 54 3d f9 64 72 bb 80 27 35 3d
       0.06562046 0.051930428 -0.0036986454 0.044227123
000220 98 e7 01 bd 2f f6 73 bd be c0 15 bb a6 e2 22 bd
       -0.031715006 -0.05956095 -0.002285048 -0.03976693
000230 9e ce f1 bc d9 22 96 3d 4e 7a 3e 3d e2 a5 69 bd
       -0.029517468 0.073308654 0.046503358 -0.057042964
000240 88 4e ff bd aa 19 16 be ca 87 f3 3a b8 6a fa 3d
       -0.124661505 -0.14658228 0.0018579897 0.12227386
000250 62 54 ff 3d 0f b4 30 3e 36 7e 8e bc b6 31 51 3d
       0.124672666 0.17256187 -0.017394166 0.0510728
000260 1e 24 5b bc aa 14 23 ba a8 b4 37 3b 51 b0 2e 3a
       -0.01337531 -0.0006221036 0.0028031264 0.00066638464
000270 ee 50 80 b9 bd ea 1f 3b bb 52 a1 39 ef 05 a0 ba
       -0.0002447436 0.002440139 0.00030769952 -0.00122088
000280 32 fe e8 3a 68 21 01 3a 4e 49 bb bd ae 84 23 3d
       0.0017775951 0.00049259374 -0.09144841 0.039921455
000290 2c 31 08 bd fc 7f 15 bd a6 cf 3f 3d ff 77 10 be
       -0.03325002 -0.03649901 0.04682889 -0.14108275
0002a0 28 b0 1a 3d 28 3d 7f 3e b9 04 db bd 40 4a 5d bd
       0.037765652 0.24925673 -0.1069426 -0.05402589
0002b0 d4 bf 89 3c 2e fb ab bd f0 e6 10 3e bd 7a ff 3d
       0.016815104 -0.08397518 0.14150596 0.12474582
0002c0 ec a5 20 3e 64 c8 43 bd 3f 12 e7 bd f5 08 14 3d
       0.15688294 -0.04779853 -0.11282777 0.036141355
0002d0 31 25 14 3e 69 bb d1 3d 38 f4 1f 3d 13 db 06 be
       0.14467312 0.10240824 0.039051265 -0.13169508
0002e0 30 20 0f be 5e 1e 86 bd 6c 8c a5 3d 4c 56 55 bd
       -0.13977122 -0.06548761 0.08083424 -0.052084252
0002f0 e0 32 29 3e 82 44 bb bd 4d 71 a9 3d 2d 3b 86 bc
       0.16523314 -0.09143926 0.082735635 -0.01638564
000300 4c 2f 6c 3c 24 56 17 3e 0c f9 25 3b 71 f5 fb bd
       0.014415573 0.14778954 0.0025325445 -0.123026736
000310 45 65 82 3d 7a b6 51 be 43 8d ae 3d 61 55 8e bd
       0.06366972 -0.20479766 0.08523037 -0.069498785
000320 70 5a 3a 3d 3d 08 90 3c 1c a9 a8 bc 9c e9 63 3d
       0.045496404 0.017582053 -0.02058845 0.05564271
000330 8d 28 19 bd dc bd 5f bd 93 0e 0e 3d 8b e2 8e ba
       -0.037392188 -0.054624423 0.034681868 -0.0010901255
000340 ff a2 1e 3d 7c 4f 1f bd ca 58 48 3d b1 31 98 3d
       0.038729664 -0.03889416 0.0489128 0.07431353
000350 09 37 54 3d 4c 7e d4 bd 60 59 1a bd dd 9e 35 bc
       0.051810298 -0.10375652 -0.03768289 -0.011085239
000360 4e fa 13 be e3 ae 85 bd 49 65 1d be 5d 20 f6 bc
       -0.14450952 -0.065274976 -0.15370668 -0.030044729
000370 8b d3 bd 3d 61 1f 97 3d 2a ad 76 3d 33 0f 9b 3d
       0.09268864 0.07379032 0.060223736 0.075712584
000380 6c a4 d8 3d b5 68 69 3c e6 e1 54 3e 7d 90 89 bd
       0.10578236 0.0142461555 0.20789298 -0.06717012
000390 a2 88 9b bd 13 81 1b 3e e5 59 01 3d 13 9f 42 bb
       -0.0759442 0.15185957 0.03157987 -0.0029696866
0003a0 3e ca 5a 3d 65 7c 99 bd 54 6f 1a b7 04 88 45 b8
       0.05341553 -0.074944295 -9.205036e-06 -4.7095135e-05
0003b0 c5 de ba 38 d8 7f 2f 38 f4 81 1a 37 9f 6e c5 37
       8.910665e-05 4.1842315e-05 9.209372e-06 2.3535742e-05
0003c0 ec fe 80 37 eb c9 00 b8 0a b5 a2 38 c2 4e 60 3d
       1.5377496e-05 -3.070563e-05 7.758483e-05 0.05476261
0003d0 42 f2 73 3d 7f e4 39 3d b9 88 ea 3d 02 0c 3f 3e
       0.059557207 0.045383926 0.11451859 0.18656924
0003e0 fe 21 a6 3d 21 7b 44 3d 8d 5f 05 3e 72 00 dd 3c
       0.08111952 0.047968987 0.13024731 0.026977751
0003f0 b1 5a 41 bd d8 4a d8 3e b4 9c 8e bd 90 f1 a8 3e
       -0.04720563 0.422446 -0.069634825 0.32996798

onnx::Conv_214 f4 [8]
000000 88 38 2f 3f 80 7b 72 bf d6 62 1b 3f 8a 70 06 3f
       0.68445635 -0.94719696 0.60697687 0.5251547
000010 e5 38 98 3e 0d 01 54 3e 24 68 c8 3e d9 32 5e 3e
       0.29730907 0.20703526 0.39141953 0.21699084

onnx::Conv_216 f4 [16, 8, 3, 3]
000000 39 c1 60 3d 5b 45 d1 3d bf 1a 01 3e de 19 ae 3d
       0.05487177 0.10218307 0.12607859 0.085010275
000010 06 d2 ec bc e3 ae 8d bd 66 dc 44 bd f3 f1 a8 bd
       -0.02890874 -0.069181226 -0.04806175 -0.08249273
000020 af 36 e4 bc df 47 06 3e e6 99 d2 3c 1d fe c0 3d
       -0.027858106 0.13113354 0.02570815 0.09423468
000030 c0 05 c9 bd b3 40 40 be ff 29 10 be 11 c5 7f 3d
       -0.0981555 -0.18774681 -0.1407852 0.062443797
000040 f4 48 e4 bc 91 0c 7e bc a6 ee 33 3e 73 72 d0 3d
       -0.027866818 -0.015505926 0.17571506 0.101780795
000050 68 f3 c3 bd ab 50 73 bd 7a b1 48 be a0 b2 71 3d
       -0.095679104 -0.059403103 -0.19598952 0.05900824
000060 b7 64 99 bd 29 7a 9b 3d 40 27 02 3d d8 63 9b 3c
       -0.07489913 0.075916596 0.031775713 0.018968508
000070 2f e3 f0 bd 65 bb 9f 3d 6c 66 a0 3d 2c dc 93 3d
       -0.11762082 0.077994145 0.078320354 0.07219729
000080 36 4c 6d bd f6 d5 da bd 8c 64 47 3c 3a cf 80 3d
       -0.05793401 -0.10685341 0.012169968 0.06289525
000090 19 78 33 be 40 b8 aa be b2 8c ac be e5 bb f2 bc
       -0.17526282 -0.33343697 -0.33701092 -0.02963061
0000a0 f8 14 c2 3e 0d 85 51 3e ec c6 ba 3d a2 da a7 3d
       0.37906623 0.20460911 0.091199726 0.08195998
0000b0 bd 7d dc 3c a4 12 cc bd cc 96 51 3d 12 41 49 3e
       0.026915425 -0.09964493 0.0511692 0.19653729
0000c0 ae c6 8c bc 73 94 03 be 3b f5 09 be e8 92 a2 bc
       -0.017184582 -0.12849598 -0.13472454 -0.019845441
0000d0 2f bf 43 3d 1e 61 18 bb fa c9 2b 3d 9b 74 89 3e
       0.04778975 -0.0023251246 0.041940667 0.26846775
0000e0 8b cb 53 3e 10 1d fb 3c 66 ce 90 bc fc 56 1f bd
       0.20683114 0.030653507 -0.017676543 -0.038901314
0000f0 d7 b3 bb bc 93 8d 4b be ee 7b 46 be fc f9 12 3d
       -0.022912903 -0.19878225 -0.19383213 0.035882935
000100 ae a6 bd 3d d5 98 45 bb 76 0f 7f bc 20 1e 34 be
       0.09260307 -0.003015091 -0.015567651 -0.17589617
000110 34 60 8e bd 08 25 40 3d 51 fc 8b 3c aa 23 b1 3c
       -0.06951943 0.046910316 0.017088087 0.021623451
000120 a4 0d 15 be a6 ae 49 3c 22 0f 8c bd c2 d4 00 3d
       -0.14555985 0.012309706 -0.06838824 0.0314529
000130 88 3c 00 bd 98 a6 7c 3d f1 9c 42 bd 6f 32 47 3d
       -0.031307727 0.061682314 -0.047512952 0.04863208
000140 15 39 85 bd a4 f2 3b 3d cf 84 93 be d9 2f 0e 3d
       -0.06505028 0.045885697 -0.28812262 0.0347136
000150 a5 e0 b1 bc b1 0d c0 be 1f 3f 66 bd 3e b9 bb bc
       -0.021713564 -0.37510446 -0.05621254 -0.022915479
000160 18 7f 95 be e8 fb 00 bc 23 b8 ab bd 4f c5 04 be
       -0.29198527 -0.007872559 -0.08384731 -0.12965892
000170 da db 88 3c 36 01 ab 3e 09 36 09 bf cf 95 de 3e
       0.016706396 0.3339936 -0.53598076 0.4347367
000180 ba d5 82 3d 18 cd 11 be 65 99 c5 3d 3d 1f 33 3d
       0.06388421 -0.14238393 0.09648398 0.043730963
000190 83 0e b5 3d 05 f9 c7 bd 24 f6 53 bd c4 45 9a 3e
       0.088406585 -0.097642936 -0.05174841 0.30131352
0001a0 d1 eb bb be 58 b9 12 3d e8 1f 01 3e a9 07 2a be
       -0.3670335 0.03582129 0.12609828 -0.16604485
0001b0 fc c5 fb 3d 31 b8 8f bd a4 32 3f 3d 2b 13 90 bd
       0.12293622 -0.070175536 0.046679154 -0.07034906
0001c0 81 3b 41 3e ec 01 75 be 87 7a 27 3d 3b 6c 35 3c
       0.18870355 -0.23926514 0.040888336 0.011073167
0001d0 b4 0a 71 3d 40 bd 4c 3d 47 a0 06 be 32 2f b6 3c
       0.058848098 0.04998517 -0.13147078 0.022239301
0001e0 5a 66 13 3e b1 5e 88 be 11 96 e9 3c 34 1f 24 3d
       0.14394513 -0.26634744 0.02851394 0.04006882
0001f0 b5 5f 5b bc 90 d4 cd 3d bf 00 44 3d da 6e 1d bd
       -0.013389518 0.10050309 0.047852274 -0.038435794
000200 82 e5 4f bd e8 25 db 3d 02 72 fe bd 91 cf 4d bd
       -0.050755985 0.107005894 -0.12424089 -0.05024678
000210 d6 fa 97 3d 5a 0f 05 be 04 95 8d 3c 9c 3a 85 bd
       0.0742089 -0.12994137 0.01728297 -0.065053195
000220 2f 66 03 be a1 e2 d9 bb f2 91 7b bd fc d9 35 be
       -0.12831949 -0.0066493307 -0.06141848 -0.17758936
000230 d5 98 58 3e bc 60 fc bd 26 ae b0 3c 13 7d ee 3d
       0.21152051 -0.12323138 0.021567415 0.1164495
000240 f4 6d 13 3d 49 56 0f 3e 73 8e 0e 3e 19 87 b2 3d
       0.03599353 0.13997759 0.13921528 0.08717174
000250 46 af 91 3d 03 ca 17 be e5 23 03 3e c7 2d 32 3c
       0.07113509 -0.14823155 0.12806661 0.010875172
000260 c2 c2 1e 3d 5b 8a 13 3e 8d 99 0f bc d5 a2 03 3e
       0.038759954 0.14408247 -0.008764637 0.12855084
000270 5d 55 bf 3c 04 03 01 be 32 fd 99 bd 75 21 1b be
       0.023356134 -0.12598807 -0.07518996 -0.15149482
000280 bc b6 06 be f9 c3 2d be 20 0c a3 bb 02 27 bd 3c
       -0.13155645 -0.16969289 -0.0049758106 0.02308989
000290 7b 4d 24 bd 36 94 6e bd 79 d1 db bd 11 a0 ee 3d
       -0.040112954 -0.058246814 -0.10733313 0.11651624
0002a0 35 0a 9b bd 97 d8 3e be ee 61 f1 3d 76 38 9f bc
       -0.07570306 -0.1863731 0.11786257 -0.019436102
0002b0 e7 11 0e be 86 b1 64 bd 24 9e 8c 3d 92 fc 32 be
       -0.13874017 -0.055833362 0.068661004 -0.1747916
0002c0 5f fd ba be 63 c3 94 3d 7d 3d 93 3e 99 2e 0e be
       -0.36521432 0.072638296 0.2875785 -0.13884963
0002d0 81 15 9e 3c 7b 09 23 be f4 01 21 3d 7a 4e 5e 3c
       0.019297363 -0.15921585 0.039308503 0.013568515
0002e0 4c 67 e6 bd 23 8b 99 be c0 d7 af bd 77 91 98 3e
       -0.11250171 -0.29988965 -0.08586073 0.2979848
0002f0 e0 9f d0 bd a1 d5 11 bd d6 35 59 3d 6c 27 75 3e
       -0.10186744 -0.035604123 0.053029858 0.2394082
000300 c9 b2 8c 3c 17 31 f4 bd 7a 1f 38 3e 75 a1 9c 3d
       0.017175095 -0.11923426 0.17980757 0.07647983
000310 05 87 3e be 08 25 5b be 0a c0 67 3d cd 89 7d 3e
       -0.18606193 -0.21400845 0.056579627 0.24759598
000320 ca 62 ca 3d 48 1c 06 be 77 3a c8 3d 5a 4c 52 3e
       0.09882124 -0.13096726 0.09776776 0.20536938
000330 7c da ac bb 39 8d 09 bd 13 09 53 3e 33 d0 31 be
       -0.005275069 -0.033581946 0.2060893 -0.17364578
000340 12 2c 6e 3b 4e ec 95 3d 42 2b 20 3d e0 78 9a 35
       0.0036342186 0.07320462 0.039103754 1.1509073e-06
000350 a9 e6 d7 3d fa a3 fa 3d 56 d4 eb bd ba 09 02 be
       0.10542042 0.12238307 -0.11515109 -0.12699023
000360 e7 3e 15 3b d6 65 77 3d d0 99 94 bd 70 6b 19 3d
       0.0022773088 0.060399853 -0.072559 0.037455976
000370 1f 37 df 3d cf 16 ee 3d a4 0a 0b bd aa 95 83 bd
       0.108991854 0.11625444 -0.033945695 -0.064250305
000380 d7 62 2c 3d a1 ee 72 bd 2b ec 2b bd aa 00 b3 bd
       0.04208645 -0.059309606 -0.041973274 -0.08740361
000390 5b 20 0c be a2 d7 22 be 12 df 2d be 2a d3 ac 3d
       -0.13684218 -0.1590257 -0.16979626 0.08438714
0003a0 6a c4 63 3c 17 ff bd 3c 6d 7f b3 3c e8 fa 2e be
       0.013901809 0.023192925 0.021911347 -0.170879
0003b0 04 21 2a 3d 21 ac ad 3d 06 de 97 bd 61 aa 0b be
       0.041535392 0.084800966 -0.074153945 -0.13639213
0003c0 53 f1 78 bd f1 15 17 3e 72 a2 61 bd 65 8e b3 3d
       -0.06077702 0.14754464 -0.05508656 0.08767394
0003d0 6b e9 f5 3d 7b 1d 15 be 58 0d 19 bc 3e d1 fc 3d
       0.120074116 -0.14562027 -0.00934156 0.12344597
0003e0 9e 4a 80 3d 4c a6 09 bd 3b 7f 97 bc be 50 2e 3e
       0.06264232 -0.03360586 -0.018493285 0.17022988
0003f0 04 30 3a 3d 83 68 68 3e e3 b6 54 3d 14 f1 56 be
       0.045455948 0.22696118 0.051932227 -0.20990402

onnx::Conv_217 f4 [16]
000000 1d fe cd bd c1 59 c0 3e ed 7f 82 3d b1 ba 82 3e
       -0.10058234 0.37568477 0.06372056 0.2553306
000010 21 ad ab bd cc 9b d1 3d 94 79 c6 be b7 ae 70 3e
       -0.08382631 0.10234794 -0.38764632 0.23504148
000020 88 4d 9c be a3 9f ea bd b0 58 91 3e 60 c3 68 3b
       -0.30527902 -0.114562295 0.28387976 0.0035516843
000030 cb 42 84 3d f7 a2 7b 3e a6 80 6f 3e 6f 22 f9 bd
       0.06458052 0.24573885 0.23388919 -0.12164771

onnx::Conv_219 f4 [8, 16, 3, 3]
000000 b5 bd 7f 3b d1 9e 67 3d 75 55 56 bc 95 7f b3 3c
       0.0039022986 0.056547944 -0.013081898 0.021911422
000010 42 4b 13 3c bc bb 0f 3c 60 34 0b 3d a1 42 38 3d
       0.008990111 0.008772787 0.033985496 0.044985417
000020 45 f4 1d 3d 64 a6 64 bd 6e 01 47 3b 13 75 ba bd
       0.03856303 -0.055822745 0.0030365842 -0.091043614
000030 8f 47 b5 bd 93 8a 79 3c 61 06 99 bd d2 2f 34 be
       -0.08851539 0.015230793 -0.0747192 -0.17596367
000040 be 61 95 3d cf 72 0b be 4f 3f 86 bc 71 e3 23 bd
       0.072940335 -0.13618015 -0.01638761 -0.040011827
000050 a8 24 60 bc 3b 99 a2 bd 7e b1 47 3d e4 ab 01 bc
       -0.0136806145 -0.07939383 0.048753254 -0.007914517
000060 c5 e9 dd 3a 66 7b c2 3c f9 9b 30 bc 22 f8 65 3d
       0.0016930631 0.023740482 -0.010779374 0.05614484
000070 80 f0 6e bb 3d b6 83 3c fc fe ec 3c 7c 3c 14 bb
       -0.0036459267 0.016078109 0.02893018 -0.002261906
000080 68 e9 86 3d d4 99 e2 bc 6b bd 2b 3d 46 fa 4b 3d
       0.065874875 -0.027661242 0.04192869 0.049799226
000090 ae b3 11 3d a2 99 1a be ea c3 01 3c c4 2a 53 bd
       0.035571747 -0.15097669 0.007920245 -0.051554456
0000a0 52 2d c1 3d 31 2c 83 bd 15 1b aa 3d 1d de 0a be
       0.09432472 -0.06404913 0.08305947 -0.13561292
0000b0 32 e7 1f 3d 5e e1 f9 3c 95 a9 2d bd d6 14 96 3c
       0.039038844 0.030502971 -0.042398054 0.018320482
0000c0 09 06 1c 3d 6a 4e bd bb b9 4b cb 3c 68 e3 2a 3c
       0.038091693 -0.00577717 0.02481638 0.010430194
0000d0 94 35 f1 3c 5c d4 41 3d a1 68 8b bc 1c f3 c4 3c
       0.029444493 0.047321662 -0.017017664 0.024041705
0000e0 5a 31 23 3d 93 e6 81 bd 6a d4 54 bc 4a 21 91 bc
       0.039841987 -0.06342807 -0.012990097 -0.017716069
0000f0 04 aa 93 bd 41 ac b5 bb e5 e4 6e bd 5d 58 4c bc
       -0.07210162 -0.005544216 -0.05832376 -0.012472239
000100 bd cd 5d 3c 49 2a 1f bc d2 61 84 bc e6 aa d9 bc
       0.013537821 -0.009714671 -0.016159926 -0.026570749
000110 22 9e dc 3b d9 a9 61 3c 02 b0 99 bc af 11 14 bd
       0.006732718 0.013773405 -0.018760685 -0.036149677
000120 24 9a 2b bb 41 b4 b0 bc ac 17 26 3c 11 c2 df 3c
       -0.0026184404 -0.021570327 0.01013748 0.027314218
000130 fc 83 32 bd 51 ff 00 3d 43 62 b9 bc 4a b6 61 bd
       -0.0435829 0.03149349 -0.022629863 -0.055105485
000140 ae 1f 26 3d 13 8c 81 3d ce 07 40 bc 2d 33 31 3c
       0.040557556 0.06325545 -0.011720611 0.010815424
000150 ae 98 86 3b bf 65 20 3c d5 88 a7 bc 68 13 3f 3c
       0.0041075563 0.009789883 -0.020450989 0.011662342
000160 e0 28 4b bd 75 df cf bd a3 89 b7 3c ac df ab 3d
       -0.04959953 -0.10150043 0.022404497 0.083922714
000170 35 ab f8 bc 79 75 5c bd 18 34 5b 3d 16 e7 bc bd
       -0.030355075 -0.05382297 0.053516477 -0.09223764
000180 2f 4e 04 3a d0 31 0a bc 5a 9f 8a 3d e1 1c 20 3d
       0.00050470507 -0.008434728 0.06768675 0.03909004
000190 5f 8c 76 bc 61 45 0a 3d 34 68 8e 3d 79 fd 4f bd
       -0.0150481155 0.03375757 0.06953469 -0.05077884
0001a0 c5 70 27 3d eb 9b 84 bc c1 1e 30 bd 7d c1 ba 3b
       0.04087903 -0.016187629 -0.04299808 0.005699335
0001b0 5c 74 3f bd 1b 30 10 be d1 5a 4a bd 1c 32 b0 bd
       -0.04674183 -0.14080851 -0.049403016 -0.086033076
0001c0 f7 ce 47 bd 88 3f 94 bd 50 b6 92 bd 4a 0b ed bc
       -0.04878136 -0.0723868 -0.071636796 -0.028936047
0001d0 0d 9f 8e bd 46 78 73 bc 30 dd 10 3c 67 26 23 3c
       -0.0696393 -0.014860218 0.008841798 0.009957886
0001e0 ad a8 ee bc 63 c7 95 bd 04 0d da 3c 99 d1 3b bd
       -0.029133165 -0.073134206 0.026617534 -0.045854185
0001f0 d4 3b 16 3d 71 3c 40 bc 69 7e 05 3d 5d 07 a5 3c
       0.03667815 -0.01173316 0.032591257 0.020145113
000200 e5 38 97 3d a6 94 61 3c 83 9b b2 bc 0c 9e eb bb
       0.07383899 0.013768351 -0.02180267 -0.0071904715
000210 d2 31 58 bd 12 5e 21 bc e4 f4 12 bd ee 66 95 bc
       -0.052781887 -0.009849088 -0.035878077 -0.018237557
000220 1d 06 9a bd f8 47 12 bc 72 0d 98 3c ec 1a b1 3b
       -0.07520697 -0.0089282915 0.018561099 0.0054048207
000230 58 78 1b 3c 44 15 e6 bc 69 db 5d 3d 7b b6 4f bd
       0.009489141 -0.028086312 0.054164324 -0.050711136
000240 37 c0 6e bd 87 68 f0 bc 76 97 4e 3d 8c 4f 92 bd
       -0.05828878 -0.029346718 0.050437413 -0.071440786
000250 8d 79 c0 bd 10 fa 12 bd af 08 aa bb e3 e0 46 bd
       -0.09398184 -0.03588301 -0.0051890234 -0.048554312
000260 df ed 9a bd bb b6 59 3c 18 77 12 3c 39 3f 8e 3d
       -0.075649016 0.013288195 0.008939527 0.069456525
000270 54 08 5e 3a bb 95 2b bd 71 be 08 3d de a2 c0 bb
       0.0008469869 -0.04189084 0.033384744 -0.0058787903
000280 5a e1 87 bd 1c cd a1 3c 09 d4 0a bd be ba 85 bd
       -0.06634779 0.019751124 -0.03389362 -0.06529759
000290 d2 d0 1c bc 97 10 94 3c d1 de 81 bd 46 0b af bd
       -0.009571271 0.018074317 -0.06341327 -0.08547072
0002a0 45 98 31 3d c1 f1 32 bd 8e 23 a4 bd 1e ba 2d bd
       0.043358106 -0.043687586 -0.08014594 -0.042413823
0002b0 68 2d 18 bd c6 f1 dc 3b be c3 dc 3b c0 90 6a 3c
       -0.037152678 0.006742689 0.0067372015 0.014316738
0002c0 22 c8 36 3c 56 d9 12 bd b9 08 65 3d 38 95 24 3d
       0.011156114 -0.0358518 0.05591652 0.04018137
0002d0 52 80 85 3b d0 e8 04 bd 14 2f 2f bd a0 60 86 3d
       0.004074135 -0.03244859 -0.042769507 0.065613985
0002e0 a1 ed 53 3c d2 e9 ae 3c 7f 07 0f 3c 3a 2d c6 bc
       0.012935073 0.021351729 0.008729815 -0.024191488
0002f0 4a d8 b5 3d 0f ad 8d bd 84 d9 96 3b fb 60 71 3d
       0.088791445 -0.06917774 0.0046035666 0.05893038
000300 c9 4b cc bc 5c 7f 26 bd bf 30 15 bd ff 33 04 3d
       -0.02493848 -0.040648803 -0.03642344 0.03227615
000310 e7 49 b9 bc 9c eb 69 bd 64 a2 67 bd 3e 05 88 bc
       -0.022618247 -0.05710946 -0.056551352 -0.016604062
000320 aa eb 5d 3c 03 5f 29 bd c3 d0 c9 bc 04 a7 cb bc
       0.013544956 -0.041350376 -0.024635678 -0.024859913
000330 c0 88 93 bc 2d 56 86 bc 69 9d 1c bd c2 62 45 bd
       -0.018009543 -0.016398514 -0.038236056 -0.048189886
000340 4e 31 e7 3c aa 5a b0 3d b3 cb 15 bc 83 6c 6e bd
       0.028221752 0.08611043 -0.009142804 -0.058208954
000350 fa e3 16 3d 08 8f 5c 3d 78 8f 2a bd d4 15 14 bc
       0.03683851 0.053847343 -0.04164073 -0.009038407
000360 04 a0 29 3d 14 c9 55 bd 2c 1c 33 be 01 d5 63 3d
       0.04141237 -0.052193716 -0.17491215 0.05562306
000370 90 4e 20 3e 06 09 68 bd 3f 4f 8c bd c2 7e eb 3d
       0.15654969 -0.05664923 -0.068510525 0.114987865
000380 b5 c6 83 3c 35 5b 95 bd c7 59 c1 3c c7 20 27 3c
       0.016085962 -0.07292787 0.02360238 0.010200686
000390 0d 5d 12 3d 0c fd 60 3c 56 d1 e9 3c e7 39 17 3c
       0.03573327 0.013732206 0.028542202 0.009230114
0003a0 93 ea 21 bd 24 05 f6 3c d5 39 7d 3d 11 a4 98 3d
       -0.039530348 0.030031748 0.06182273 0.07453168
0003b0 3a 92 22 3d 90 28 5b 3d 85 dc c1 3c bd a1 95 3d
       0.039690234 0.05350548 0.023664722 0.0730624
0003c0 7c bf 2e bb 3c 58 1a bd 91 ca 5b 3c 74 36 3d 3c
       -0.0026664427 -0.037681803 0.013414995 0.011548627
0003d0 c3 c3 0a 3d 4c 39 a3 3c 56 1e 09 bd 98 1d 27 bd
       0.0338781 0.019924782 -0.033476196 -0.040799707
0003e0 a5 58 3e bd b3 aa c7 3b 66 b4 e0 bb 2e 34 78 bc
       -0.046471257 0.006093347 -0.0068574427 -0.015149159
0003f0 81 4a 7d bc 14 14 85 3c c4 7c 93 3d 33 ce 25 bd
       -0.015459658 0.016244926 0.072015315 -0.04047985

onnx::Conv_220 f4 [8]
000000 a2 98 fc 3e 04 e8 a0 3d 90 5b 03 3e c2 ca d4 3d
       0.493352 0.078567535 0.12827897 0.103902355
000010 41 ab d1 3e 63 e2 e8 3e 70 f5 42 3e 53 1b ca 3e
       0.4095097 0.4548522 0.1903894 0.39473972

onnx::Conv_222 f4 [16, 8, 3, 3]
000000 d8 e0 7c bc 64 93 70 3b 3a e2 a7 bc a4 80 46 3d
       -0.015434466 0.0036708945 -0.020493615 0.048462525
000010 43 34 91 3d b1 67 e9 bc ff ce 45 bc 70 86 cd 3d
       0.07090046 -0.028491827 -0.0120732775 0.100354075
000020 ce 17 88 3b 81 92 49 bd ce 91 41 3b d5 b8 17 bd
       0.0041532284 -0.049211983 0.002953637 -0.037041504
000030 ec bf 39 3e 48 f2 24 3e c2 b8 b1 bd 18 b0 9d 3d
       0.18139619 0.16108048 -0.08677818 0.07699603
000040 90 b6 9b 3d cd 19 cc bc f9 50 f8 3d ea 0a 07 3e
       0.076031804 -0.024914647 0.12124819 0.13187757
000050 00 bf a3 3c 04 ae f1 3c 7b e0 84 3d 06 4b 84 3d
       0.019988537 0.029501922 0.06488129 0.06459622
000060 35 bb 16 bd 75 ca 22 bd d9 21 6b bd 46 87 8d bd
       -0.03679963 -0.03974386 -0.057405327 -0.06910567
000070 9a e8 2f be a0 9b 40 be a0 f6 85 3d e3 26 56 3d
       -0.17178574 -0.18809366 0.065411806 0.05228318
000080 f4 e0 d1 bc c4 c3 7f 3e 1a 1c 9e 3e 51 95 24 3e
       -0.025619961 0.24977022 0.30880815 0.16072585
000090 96 2c b6 3b 2e 8d c4 bd fc 3a 25 3c b8 83 2e 3e
       0.0055595143 -0.095972404 0.010084864 0.17042434
0000a0 fa 56 20 bd cb 79 a0 bd 03 34 aa bd f6 a3 10 bd
       -0.039145447 -0.0783573 -0.08310702 -0.035312615
0000b0 c1 6c 63 bc 52 60 a9 bd 0d 91 a0 bd a3 c7 bb bd
       -0.013880909 -0.08270325 -0.07840166 -0.09168937
0000c0 a1 f9 fe bd 23 b7 83 be 6f 57 56 be 80 71 28 3e
       -0.12449957 -0.2572566 -0.20931791 0.16449547
0000d0 6d ff 74 3e b3 15 08 3e e2 9e ad 3d 18 c3 65 3e
       0.23925562 0.13289528 0.0847757 0.22437704
0000e0 3d f3 5e 3e 00 a6 34 3d 1f ee af 3e 9e 7f 91 3e
       0.21772476 0.044103622 0.3436136 0.28417677
0000f0 60 0b ba bd f3 2f b3 bc 6a 54 53 bc 96 d3 e1 3c
       -0.09084201 -0.02187345 -0.012898544 0.027566712
000100 b1 4b ad bd 32 29 1e be 65 51 30 bd fa 61 e5 bc
       -0.084617026 -0.15445402 -0.043046374 -0.02800082
000110 35 b4 6d 3d 1e d4 dd bc 71 eb 8e bd e4 11 20 be
       0.058033187 -0.027078684 -0.06978501 -0.15631825
000120 24 90 f5 bd 1d 33 81 3d a2 b5 a6 bd 99 db 79 3b
       -0.11990383 0.06308577 -0.081401125 0.0038125275
000130 e6 e5 2c bd 96 30 79 3d 21 0e e8 bd ce 3f 1b 3e
       -0.042211436 0.06083735 -0.1133082 0.15161058
000140 d9 c2 21 bd 97 1b d2 3c eb 08 9c bd e4 0a 89 bc
       -0.03949246 0.025647921 -0.076188885 -0.016728826
000150 13 0e a7 bc d2 6e c1 3b f7 24 e0 3c f2 bc c0 3c
       -0.020392453 0.0059031034 0.027361376 0.023527596
000160 a9 d2 21 3c ae c9 fc bd 01 05 0f 3e 8d 8d 6b 3d
       0.009876885 -0.12343155 0.13966753 0.05750804
000170 14 47 3b 3c df 42 af 3d e3 43 ca 3d 8e 20 26 3c
       0.011430521 0.085576765 0.098762296 0.010139598
000180 09 d8 1e 3e 0c e4 56 3d 8a 0d 5a bc 45 03 ba 3d
       0.15512098 0.052463576 -0.013308892 0.09082655
000190 cf cf 49 bc 9f 61 b0 3d 36 55 f6 bc b5 d7 85 bc
       -0.012317612 0.0861237 -0.030069929 -0.016338209
0001a0 e0 7c dd 3d 68 c4 05 be 51 0d b4 bd 66 ad 8d 3c
       0.10814834 -0.13063204 -0.087916024 0.017294597
0001b0 b8 05 c3 3c 77 93 1a bc 77 a0 08 bd 0a c9 12 3e
       0.023806438 -0.009434572 -0.033356156 0.14334503
0001c0 5f 06 d6 be 19 fc 36 3b d5 67 8d bd 28 35 3c be
       -0.41801736 0.0027921258 -0.0690457 -0.18379653
0001d0 15 c8 8a bc 5b 87 41 bd a9 1d 2b bd 2a 61 55 3d
       -0.01694111 -0.047248226 -0.041776333 0.052094616
0001e0 29 a7 60 3e 75 34 17 be 21 2c 66 3d cb cf 18 3e
       0.21938767 -0.14766105 0.05619443 0.14923017
0001f0 0d 9a d9 bd 99 2b 3a 3b 54 08 ab bc 41 cf 00 be
       -0.10625086 0.0028407334 -0.020877995 -0.12579061
000200 37 3a 5c bd ad 17 bf bc 8f 84 53 3d 38 61 b7 bd
       -0.053766456 -0.02332672 0.05164009 -0.0895409
000210 2a 8c 02 bd c8 6f d4 3c 18 a6 b6 bd f8 dd 75 be
       -0.031871952 0.025932208 -0.089183986 -0.24010456
000220 42 58 1c bd 4a e0 b4 3d a5 bb d7 bd 64 94 b8 bd
       -0.038170107 0.08831842 -0.10533837 -0.09012678
000230 8c ae 8f 3e b6 bf 3b be 46 7b 21 bc 19 68 20 3e
       0.28062856 -0.1833485 -0.009856051 0.1566471
000240 78 b5 84 3d f2 cc b4 3d 8e ca 56 3b cd 19 f8 bd
       0.06479925 0.08828153 0.003277454 -0.12114296
000250 ce 3c cd 3d 42 15 50 bd 96 60 9e bb 61 99 42 be
       0.10021363 -0.050801523 -0.0048332913 -0.19003822
000260 9a d4 98 3d 9f 58 93 3d 90 df 1f 3e d1 59 f7 3d
       0.074624255 0.071946375 0.15612626 0.12077678
000270 9f 18 1d 3d 32 9d 1f 3e 9a 21 21 3e 6a bf 45 3e
       0.03835356 0.15587309 0.15735474 0.193113
000280 3b 36 5e 3e 7c 83 c8 bd e0 6a a5 bd ee 70 bb bd
       0.21700375 -0.09790704 -0.080770254 -0.09152399
000290 a7 86 37 be 08 c7 f8 bb ba 42 1f be 5f ca 0d be
       -0.1792246 -0.0075920857 -0.15552798 -0.1384673
0002a0 8a 24 81 bd fd 5b 34 bd 7c 19 2d be b4 e7 32 3e
       -0.063057974 -0.04403304 -0.16904253 0.174712
0002b0 35 8f 05 3d 38 bc b2 3d 81 6d ef bd 91 25 8a bd
       0.032607276 0.08727306 -0.11690808 -0.067454465
0002c0 16 59 ad bd 1c c2 06 3d 85 24 e1 bd 16 94 17 be
       -0.084642574 0.03289996 -0.10993294 -0.14802584
0002d0 aa e3 7c bd c1 7e 70 3e 91 74 50 3c 07 66 e5 bd
       -0.061740555 0.23485853 0.012723104 -0.11201101
0002e0 01 39 fb bd c6 f7 04 3e 3c bb 00 3e f4 20 f2 bd
       -0.12266732 0.12985143 0.12571424 -0.118226916
0002f0 15 81 87 bc d7 f7 7f 3b d4 02 35 3e 2e 86 ff bd
       -0.016541043 0.0039057636 0.1767686 -0.124767646
000300 cf 52 6f be af 3b 08 3d 4c 0e f2 bc 21 29 a8 3d
       -0.23371433 0.033260044 -0.029547833 0.0821097
000310 2f 74 2b be e1 37 ac bd 63 2b c3 3c b8 7d be 3d
       -0.1674354 -0.084090956 0.0238244 0.09301323
000320 f7 d9 39 3e e4 ec 95 3d 72 a1 be 3d b6 ca b5 bc
       0.18149553 0.07320574 0.09308137 -0.022191387
000330 70 d2 93 3d 03 d7 a3 3d 8b 00 c9 bd a5 5a dc bc
       0.07217872 0.079999946 -0.09814557 -0.026898691
000340 83 19 b7 bb 1a b6 d6 bd 39 b0 61 3d 79 ca 7a 3d
       -0.005587758 -0.10483952 0.0550997 0.06122825
000350 38 46 e4 3d 16 11 18 bd 91 53 9b bc 9e 31 5a 3e
       0.11146206 -0.03712567 -0.018960746 0.2130799
000360 d2 af d1 bd eb 45 57 bc fc b7 a7 bd 7b 7e f5 3c
       -0.10238613 -0.013139228 -0.08189389 0.029967537
000370 da f0 a6 bc 47 4d 16 bd c3 e7 df bb 8d 66 e3 bd
       -0.020378519 -0.03669479 -0.006833048 -0.111035444
000380 2e a5 b6 bc d9 87 85 bc 02 60 19 3e 10 e0 a9 3d
       -0.02229556 -0.016300129 0.1497803 0.0829469
000390 76 6a 11 3e 40 74 21 3e cc 40 ee 3d e7 a8 17 3e
       0.14200768 0.15767002 0.11633453 0.14810525
0003a0 64 a0 9a 3d 43 68 13 3d 0b 0f 06 3d 87 37 09 be
       0.07550123 0.035988104 0.03272919 -0.13400088
0003b0 6e 09 b4 bd b7 ef fb bc e2 93 b5 bd 92 61 0e 3b
       -0.08790861 -0.030753953 -0.08866097 0.0021725637
0003c0 72 d3 f9 bd 47 92 32 bd 05 7e 32 3d a0 f1 97 bd
       -0.12198533 -0.043596532 0.043577213 -0.07419133
0003d0 3f 2e 4c bd 9f 11 fa bd e4 1e 00 bd 03 80 23 bc
       -0.04984879 -0.12210392 -0.03127946 -0.009979251
0003e0 1b d5 6f bd d7 8b 22 3e 64 6d 26 3e aa e1 30 3c
       -0.058552843 0.15873657 0.16252667 0.01079599
0003f0 c9 71 d5 3d f1 6f 93 bd 45 83 c5 bc 09 a7 6c 3d
       0.104220934 -0.071990855 -0.024110446 0.057776485

onnx::Conv_223 f4 [16]
000000 75 b0 cd bd 24 ae 73 3d 66 85 37 bd 54 19 8b 3d
       -0.10043422 0.059492245 -0.044804953 0.0679194
000010 a2 54 4a bd a4 f3 e5 3d de da 68 bd 02 1e 0d 3e
       -0.04939712 0.112281114 -0.056849353 0.13780978
000020 57 8c e6 bc f9 31 02 3d 66 21 33 3e 2d e9 16 3e
       -0.028143091 0.03178594 0.17493209 0.14737387
000030 c6 c6 82 3e fc 4f c1 3e 9b 2c ae 3d e1 66 06 be
       0.25542277 0.37756336 0.085046016 -0.13125183
